autoencoder/models/model2.pt (torch_old, 884434 bytes, 36 tensors)

conv1.weight f4 [32, 3, 5, 5]
00000000: a4c8 95be 9795 3c3c 6644 f8bd 91ef 95be
00000010: 4834 99bb ce55 a83d c4fa 96bd da68 073e
00000020: d633 f63d cb0e ad3d 3108 83bb 2598 c03d
00000030: 6f3b 82be a113 f0bd 2030 913d 504f 9cbe
00000040: b37c ccbd a247 f0bd b6f5 f3be 1823 6dbe
00000050: 063e 133e 8920 1cbd 823a a9bd 86af c93d
00000060: e2fd 52be 3e5d 05be 36e1 9d3d 9436 5abe
00000070: c6cb 47bc 0cad 9a3d f452 f5bc fc38 4c3e
00000080: 54ba 50bd d389 0abe 8881 d73d 63d6 febc
00000090: 0f3c 62be 7012 08be f3fd b6bd 1a54 babd
000000a0: d814 c53d 3d04 b6bb c447 1dbe 8085 b7bd
000000b0: ab00 18be 7383 6bbe c503 213e e83e 223e
000000c0: 5a74 17be 7a64 613d d525 6740 c646 6640
000000d0: ed8a 3c40 0090 8540 974b fd3f 17a4 e6be
000000e0: a292 c63d b7dd 08bf 22e3 05bf b8ef 99be
000000f0: 47c9 10bf cbf1 08bf 7b01 17be 3b25 16bf
00000100: 653d bfbe 549f 0040 7064 9f3f a630 633f
00000110: 65a5 1640 0b50 a73f 792e 32be dedf 893e
00000120: 6f3f 84be f99c b4be 3510 f5bb 3e38 1ebc
00000130: 1768 b6bc 3a88 fa3d 88d0 c1bd 4c64 ec3c
00000140: 9744 a83d 80d0 073d f952 a2bd e773 173e
00000150: 5f7c 643b dac6 37be a7a9 9a3d d5cb b63e
00000160: 4d47 25be 031f 64bd f614 f6bd cc25 1fbc
00000170: a58f 893e bccf c4bd d152 1fbd f52e 513d
00000180: bbab b1bd fc53 b1bd 1a01 153e ec6f 10be
00000190: 4795 79bd 4c0d 9bbe f7a8 113f ee21 f7bd
000001a0: d4c8 4abd bac2 f2bd d79d b63e 495c f5bc
000001b0: ee7a 84be a4cd 5a3d 9b66 f03d cfb2 c3be
000001c0: c939 483e 12b3 673e 3d52 38be 21dc 01be
000001d0: 9323 83be 192d 493f a412 bcbe 0089 3cbe
000001e0: b8a4 23be 8249 a03d 0eda f1bc 5bb4 ac3d
000001f0: 9b22 a0bd 2f36 88be f2e9 a13f 2255 6abf
00000200: 0d93 febe 9a28 493f 2b7e 78c0 bd17 7ebf
00000210: 79e0 70c0 d1c4 f4bf 78c8 59c0 78ba a13f
00000220: 1f14 b8bf 8279 50bf ebcc f13f a2ac 8abf
00000230: 551c bcbe e09d 903f b785 77bf a74a 32bf
00000240: 16ce 2e3f 512d debf 02ff 93bf 1c8d 10c0
00000250: 701d b1bf 3209 c4bf 6035 a9bf 8598 68bf
00000260: 99b6 01bf ead8 aabf e2f2 23bf ce1f 4e3e
00000270: 5fc3 1ebf c3a9 e3bc ba52 983e 5d05 28bf
00000280: fb09 313e 81a3 be3e 7429 3fbe 1ba8 543e
00000290: 301e 1d3f 43c2 09bf 6cb2 cbbe 7d80 07bb
000002a0: 4ffb 45bf df57 0cbe a767 f13e 0504 aabe
000002b0: db6b d03e 7bed 083f 32fe 84be 344a 343f
000002c0: 75f0 493e a60f 453e b83d 823f fad2 333e
000002d0: 127b 5abd 8a05 123f 7f2f f93e 4698 f83e
000002e0: 1c3f 3a3f 398c b63e c4a5 11bd e4e0 833e
000002f0: 2f4f 8fbc 584c d6be 2586 023f 2028 2f3c
00000300: e40d 14be be74 453f 4dc0 b63d b774 01bf
00000310: 2948 843e 597a 363e d9d3 aabc 186f c03e
00000320: 4b47 55bf 86c5 b5bf adbb 6ebf 2bb2 a6bf
00000330: 16a0 9bbf 3e83 3f3e be80 3fbe 9b67 49be
00000340: 6046 1a3f 1120 b93e 8197 b3bc f286 c83e
00000350: fbcc 893e a414 803e 4bf9 193f 58a7 e9be
00000360: b511 64bf e7c2 b1bd 2759 d1be 8148 5fbf
00000370: 04a6 79bd dc5d dcbd df36 a9be 12f5 bf3e
00000380: 8abe 473d 8029 7c3e b98d 6abe bfdf a9bd
00000390: b00d b13d 007c cdbe 65aa 98bd 8167 853e
000003a0: 445e 34be 0b9c dd3c 8225 4b3e f52b 7fbe
000003b0: 1780 01bc 2a22 4f3e fd9c b6bc 5da2 08be
000003c0: bede 143e 234a 07be 49ba 34bd 3828 0f3e
000003d0: 72d1 a1be 3c7a fcbc ad08 843e 409f 95be
000003e0: 2c50 82bd 08fa f43d 5cf8 4ac0 1d45 8ac0
000003f0: ec14 c03e 22cd 19c0 d2fa 53c0 a2b1 1c3f
-0.2925464 0.011510274 -0.12122421 -0.29284337 -0.004675422 0.08219491 -0.073720485 0.13223591
0.12021606 0.08450087 -0.003998779 0.09404019 -0.2543597 -0.11722494 0.07089257 -0.3052926
-0.09984722 -0.11732413 -0.476484 -0.23157918 0.14379129 -0.038116965 -0.082631126 0.098479316
-0.20604661 -0.1302385 0.07708971 -0.21309882 -0.0121945795 0.07552537 -0.029946782 0.19943613
-0.050958946 -0.13529138 0.10522753 -0.031108087 -0.22093223 -0.13288283 -0.08935156 -0.09098072
0.09623116 -0.0055547045 -0.15359408 -0.0896101 -0.14844005 -0.22999363 0.15724094 0.1584431
-0.14790478 0.055027463 3.611684 3.5980697 2.9459794 4.173828 1.9788693 -0.45047066
0.09695937 -0.5346331 -0.522997 -0.30065703 -0.56557125 -0.53493947 -0.14746659 -0.5865056
-0.37351528 2.0097246 1.2452526 0.88746107 2.353845 1.3071302 -0.1740054 0.2692861
-0.25829646 -0.3527601 -0.0074787387 -0.009656964 -0.02226643 0.122330144 -0.09463602 0.028856419
0.082162075 0.033157825 -0.07925982 0.14790307 0.003486417 -0.1794695 0.0755189 0.35702386
-0.1614048 -0.055693638 -0.12015717 -0.009713601 0.26867405 -0.09609935 -0.03889734 0.051070172
-0.08675333 -0.08658597 0.14551201 -0.14105195 -0.060933378 -0.30283582 0.56898445 -0.120670184
-0.04950793 -0.118535474 0.35667297 -0.029951232 -0.25875038 0.05341877 0.117383204 -0.38222358
0.19553293 0.22626904 -0.18000121 -0.12681629 -0.25613078 0.7858444 -0.36732972 -0.18411636
-0.15980804 0.078265205 -0.029522922 0.084328376 -0.078191005 -0.2660384 1.264952 -0.9153615
-0.49721566 0.7857758 -3.8827007 -0.9925497 -3.7637007 -1.9122564 -3.4028606 1.2635031
-1.438114 -0.81435406 1.8890661 -1.0833933 -0.36740366 1.129818 -0.9668841 -0.6964516
0.6828321 -1.735758 -1.1562197 -2.2586126 -1.3837109 -1.5315306 -1.3219414 -0.90857726
-0.50669247 -1.3347447 -0.64042485 0.2012932 -0.6201686 -0.02779091 0.29750615 -0.65633184
0.17288963 0.3723412 -0.18668157 0.20767252 0.6137419 -0.53812045 -0.39784563 -0.002067595
-0.7733659 -0.13705395 0.47149393 -0.33206192 0.40707287 0.53487366 -0.25975186 0.70425725
0.19720633 0.1924425 1.0175085 0.1756095 -0.053340025 0.570397 0.4866905 0.48553675
0.7275255 0.35653856 -0.035558477 0.25757515 -0.017493812 -0.4185512 0.5098594 0.010690719
-0.14458424 0.7713126 0.08923397 -0.5056872 0.25836304 0.1782011 -0.02085297 0.37584758
-0.8331191 -1.4200904 -0.9325512 -1.3023123 -1.2158229 0.18702409 -0.18701455 -0.19668429
0.60263634 0.36157277 -0.021922829 0.39165455 0.269142 0.25015748 0.60146016 -0.45635486
-0.8908952 -0.08679753 -0.4088833 -0.8722001 -0.06094934 -0.1076009 -0.33049676 0.3749166
0.048765697 0.24625206 -0.22905625 -0.08294629 0.08645189 -0.40133667 -0.07454375 0.2605553
-0.17614084 0.027051946 0.19838527 -0.24919112 -0.007904074 0.20227876 -0.022291655 -0.13343187
0.14538094 -0.13211875 -0.044122968 0.13980186 -0.31605107 -0.030820005 0.2578787 -0.2922306
-0.06362948 0.11961752 -3.1714087 -4.3209367 0.37515962 -2.4031453 -3.3121839 0.61208546

conv1.bias f4 [32]
00000000: f517 e63d bd33 99b9 894a 94bd 9740 8c3d
00000010: 9d95 c5bc 8b02 223c 7a66 7ebd 3006 c4bd
00000020: c082 9ebd 1bd7 2bbc ec95 abbd a55b e33d
00000030: 0e40 bd3a d04e 2ebd 2fbd 333d 2e54 cdbd
00000040: ca38 6ebd 7113 4d3d 6c61 c7bd 1ba9 763d
00000050: d135 1b3c 121f bebd 3e10 f2bd 7139 103d
00000060: 3c20 6b3d 27b6 b5bc 2ead cebd 4a68 82bd
00000070: beb9 1c3c 0331 793b ea5b f33c 54b9 ac3c
0.11235038 -0.00029220982 -0.07240779 0.06848257 -0.024119193 0.009888302 -0.062109448 -0.09571493
-0.07739782 -0.010488297 -0.08378205 0.11101464 0.0014438645 -0.04255563 0.04388159 -0.100258216
-0.058159627 0.05006737 -0.097353786 0.060219865 0.00947328 -0.0928327 -0.11819504 0.03521103
0.057403788 -0.022181584 -0.10091625 -0.06367548 0.009565769 0.0038023598 0.029706914 0.021084465

batchnorm1.weight f4 [32]
00000000: e301 403f 27a4 a53f 135e a83e 6882 483f
00000010: b299 3b3e a7be 653f cffb d13e 15eb a33e
00000020: 9922 2e3f 5991 d33e e967 1e3e 7d31 9c3e
00000030: b973 fa3d c4b7 8e3f 2e4a f03e d3a9 463f
00000040: c62d 993f e986 873f 5a41 193e fe03 e23e
00000050: 9867 023f b3e8 003f 199f 0c3e c077 913f
00000060: f337 b33e 39f9 b23f ea00 d33e 9df1 7b3f
00000070: 4c17 f63e 896a 813f 63b8 2c3f 2264 523f
0.7500288 1.294072 0.32884273 0.78323984 0.18320349 0.8974404 0.41012427 0.3201529
0.6802154 0.4132183 0.15469326 0.30506507 0.122291036 1.1149831 0.46931595 0.7760288
1.1967094 1.0588046 0.14966336 0.4414367 0.5093932 0.5035507 0.13732566 1.136467
0.35003623 1.3982307 0.41211635 0.9841555 0.4806465 1.0110637 0.6746885 0.8218404

batchnorm1.bias f4 [32]
00000000: 8cd0 17be f3b5 d2bf d92b 893e b0cc 8d3f
00000010: 1fd7 d53e 194c 043e a357 9b3f a233 873f
00000020: acf7 0abf c7ce b2be 453e 0fbd ef51 ae3f
00000030: 7e8a a7bc 1a8f d7bf 5404 5ebe f091 363e
00000040: 3201 11c0 c0f9 c3bf 4ebc d2bc fdd2 543e
00000050: edcc 3c40 893a 1c40 3c99 fb3d 2891 c5bf
00000060: 0496 b9be c49c fabf c16b b5be 344e 88bf
00000070: 1393 5440 265f 56be 14a5 2ebe 505c f03d
-0.14825648 -1.6461776 0.26791266 1.1078091 0.41765687 0.12919654 1.213612 1.0562632
-0.5428417 -0.34923384 -0.034971494 1.3618754 -0.02045178 -1.6840546 -0.21681339 0.17829108
-2.265698 -1.5310593 -0.025724556 0.2078361 2.9500077 2.4410727 0.122850865 -1.5434923
-0.36247265 -1.9579091 -0.35433772 -1.0648866 3.3214767 -0.20934734 -0.1705516 0.11736357

batchnorm1.running_mean f4 [32]
00000000: 0254 f140 3ba7 22c1 3f0a 38c0 eef0 33c1
00000010: 8876 833f 2377 c540 00d0 d93f be5f af3e
00000020: d4a8 36c1 e166 5940 a661 b7bd 6dc8 e63e
00000030: 9804 b43d 4fbd 65c1 9b58 11c0 c1e1 60c1
00000040: 8b53 4441 7b60 ad41 f144 cc3f ef6c 1540
00000050: 9f5c 273f 72ed 753e 7e86 98bf 2b9c 31c1
00000060: 25ff ad40 9a2f 3f41 375e 8c40 24e1 9541
00000070: f021 903e 94c9 d8c0 4e5f 8541 82b1 fcc0
7.541505 -10.165828 -2.8756254 -11.246321 1.0270548 6.170793 1.7016602 0.34252733
-11.416218 3.3969042 -0.08954172 0.45074788 0.08789939 -14.358718 -2.271033 -14.055116
12.270396 21.67211 1.5958539 2.3347738 0.65375704 0.2401636 -1.1916044 -11.100627
5.4373956 11.949121 4.386501 18.734932 0.28150892 -6.7746067 16.671535 -7.8966684

batchnorm1.running_var f4 [32]
00000000: 6fd6 ce41 bb02 d541 6449 cc40 23ec 0442
00000010: a756 263f 6100 5641 4dc6 c13f 9105 333f
00000020: 6ffe f641 222c c840 e9e5 563f fcec 523f
00000030: ca94 383f c8b6 3142 ad15 1e41 6b50 0042
00000040: 4c68 1e42 ae20 d042 ad78 1c40 37b4 2741
00000050: aa93 633f 2bb0 863f 762e 6540 81e0 dd41
00000060: ecd9 1941 9df7 0642 d3b8 ed40 c2d9 8c42
00000070: 7b96 303f e999 7b41 4903 3342 b7c3 dd41
25.854704 26.626333 6.383959 33.230602 0.6497597 13.3750925 1.5138642 0.6993037
30.874235 6.2553873 0.83944565 0.8239286 0.72102034 44.428497 9.880292 32.078533
39.601852 104.06383 2.4448655 10.481498 0.8889719 1.0522512 3.5809608 27.734621
9.615704 33.74181 7.4288116 70.42531 0.68979615 15.725076 44.75321 27.720564

conv2.weight f4 [64, 32, 4, 4]
00000000: 7e26 6abe 93b2 f23d 4b63 573c 9097 b83d
00000010: ccc5 e13d def3 043e fca4 b03e 5234 d63d
00000020: bee6 733d 6957 b13d 7ccb d7bd 25a8 a93e
00000030: d065 86be 24a3 9f3c c5bc 1bbd 5d08 06bd
00000040: 5766 1f3d e1ea ef3e 0381 81be 366f cabd
00000050: f137 c0bd 5d72 353c 5dc6 2f3e fd7b ca3d
00000060: 72ad 343d 3326 95be 65c6 4fba 2710 ba3d
00000070: 7d98 11be 8a21 c83e 1dff d1be 71ae 3bbe
00000080: 97e1 353f 46ad f93e 80a4 f93e 1fc5 ae3e
00000090: dd8a 50be a6ca 70be 6405 91be 6b41 5a3e
000000a0: 3a1a 0ebf 5d0f 4bbe ab83 29be 4577 bfbe
000000b0: 18bb babd 3f2d 23be 3b0e 4ebe 7c58 90be
000000c0: 4943 8dbd 4def 06be 85f6 a33c e5a3 403c
000000d0: 1ec4 363d 1094 d43d b3d4 3e3e 327a 113e
000000e0: 8be1 25be aa7b 8dbd 3443 c8bd 392b 09bd
000000f0: cf93 b2bd 6dcf 3fbd 34dc 0cbe 1748 25bd
00000100: 9b5f 8e3d 975f 07be 5798 ed3d 454f e73d
00000110: ae10 e13d 732b b4be d9e7 f7bd fefb 2abd
00000120: 93c9 8e3e 2ebc 263e 7c48 adbe 5f51 113e
00000130: 54f8 84bd f9ec 10be 042d 73bb e90b d6bd
00000140: a4c2 e8bd 76ff 793e 5654 ffbe 0b7c cbbe
00000150: 778a 56bf 9724 71bf b417 e1be 0052 6bbf
00000160: 6ec0 c1be d57e 2abf 6e1b 2cbf 0329 a3be
00000170: 0089 aabd f935 553e 3bcb c6bd 42a9 21be
00000180: 3bb4 a03e bcb4 c7be c2a5 14bd 6e0b dabb
00000190: fd2f 013f cfad bd3e dc76 073f 7d5d 433e
000001a0: bcdc 8bbd 6fc3 113e 068d a5bd 0679 5b3e
000001b0: 513b bf3c 38c8 00bf 3106 e43c 3fa3 42be
000001c0: 2952 edbc a37b eb3e 6ff2 783e a241 393e
000001d0: 9203 d73e bcb1 0b3e 3140 973d b14a eb3e
000001e0: 0d88 1d3d 0f89 45bd 3a58 cdbe 7366 35be
000001f0: 3b4a c2be 1d91 d83c 89ba bbbe 78da 80bd
00000200: 8d12 a6bd 86b2 a1be 2848 84bd cf88 c0bd
00000210: e919 6dbe 7715 87be aa18 f5be 5fa6 203e
00000220: 41d7 e1bd d8db 903e 5408 843e c3eb 193e
00000230: e2b4 a8bd afe6 afbd 97b2 b0bc cf84 143c
00000240: d11a a9be 6a8d 00bf 462b b6be 292a cfbe
00000250: a54e 6fbc 45c3 7c3e 652c 7abe 7a99 b5ba
00000260: e6b1 76be 31d0 26be 42be 993e b236 093e
00000270: 72a6 6f3d 627a b63e ef29 7b3d 6a4d 3a3e
00000280: c19a 883e 5b94 66be cf7c f73c 10ac 873d
00000290: 7c84 df3d 2c3b e23d 46dd 94be fc46 fe3d
000002a0: 3d60 6b3d 07fb a73d 885c 77bd 7bc9 33be
000002b0: 13b0 883e a0a4 8cbe 0427 3fbe 030e 95be
000002c0: bb78 153e 16da 35bd 8243 a6bb 7b17 5b3e
000002d0: fe64 013e 23ab 123f a0f1 b2bd 5822 9abe
000002e0: 73bd b03d ae79 b0be d1f6 4c3e 7b35 f9bd
000002f0: 9a80 823e 704d 54be 0972 d2bd daea 8e3e
00000300: 7292 49bf a687 dcbe c113 d1bd 4285 8bbe
00000310: db8b d83a 2f85 06be c7b9 803d 9b21 6abe
00000320: 651a a13e b55f 093f 3fbc 33be d5a5 90bd
00000330: 59dc a5be 01eb 923e 2633 143e ed1d f8bd
00000340: 844c 9d3f 1c23 713f 76a5 ba3f c747 9e3f
00000350: c75d e63f 6e28 0840 cdc3 cd3f 7a0d d03f
00000360: bbcd ba3f b4b7 2a40 4280 1740 854e d03f
00000370: 1538 2a3f 7b82 f13e 9f63 723f e56a 333f
00000380: 3244 593e eda0 e83d 25a1 bdbd 2b1b 873e
00000390: 7cf8 0cbe 616b 5e3e 5247 ec3d 5d3c 81be
000003a0: 988e 24be 5da3 c2be 29ea 2fbe ebb3 c1be
000003b0: aeb6 463e ccad ac3d b736 4dbe 42f6 603e
000003c0: 6e9f cd3f 33b8 f63f c318 0440 d131 d93f
000003d0: ca4a 183f b07a 343f ac15 913f 4872 303f
000003e0: fd6d 5f3f 3724 3b3f b9ed 473f 5d82 803f
000003f0: 5f24 943f 29e0 cd3f 7728 c13f 4f9d a13f
-0.22866246 0.118504666 0.013146232 0.09013283 0.11024055 0.12983653 0.34500873 0.10459198
0.059546225 0.0865925 -0.105368584 0.33136097 -0.26249552 0.019486971 -0.03802182 -0.03272282
0.03891596 0.46858886 -0.2529374 -0.09884493 -0.0938567 0.01107463 0.17165513 0.0988693
0.044110723 -0.29130706 -0.00079259864 0.09085112 -0.14218326 0.39088088 -0.41014948 -0.18328263
0.7104735 0.4876501 0.48758316 0.34134766 -0.20365472 -0.23514804 -0.28324425 0.21314017
-0.5550877 -0.1983008 -0.16554134 -0.37395683 -0.091177166 -0.15935229 -0.20122616 -0.28192508
-0.06897599 -0.13177224 0.02001501 0.0117578255 0.044620626 0.10379803 0.18635826 0.1420677
-0.16199319 -0.06908353 -0.09778443 -0.033488486 -0.087195985 -0.046828676 -0.13755876 -0.040351953
0.06951829 -0.13220058 0.11601322 0.11294416 0.109895095 -0.351894 -0.12104768 -0.041744225
0.27888164 0.16282722 -0.33844364 0.14191197 -0.06492677 -0.14152898 -0.0037105689 -0.104514904
-0.1136525 0.24413857 -0.4986903 -0.39743075 -0.8380503 -0.94196457 -0.43963397 -0.91922
-0.37842125 -0.6659978 -0.67229354 -0.31867227 -0.08326912 0.2082137 -0.09706732 -0.15787223
0.31387505 -0.39005077 -0.03629089 -0.0066541946 0.5046385 0.37046668 0.5291574 0.19078632
-0.06829211 0.14234708 -0.08083539 0.21432886 0.023343714 -0.5030551 0.027834984 -0.19007586
-0.028969841 0.45992765 0.24311231 0.18091443 0.4199491 0.13642019 0.073852904 0.45955423
0.038459826 -0.048226412 -0.40106374 -0.17714863 -0.37947258 0.026436383 -0.36665753 -0.062916696
-0.08109007 -0.31581515 -0.06459075 -0.09401094 -0.23154415 -0.26383564 -0.4787038 0.15688466
-0.110273845 0.28292727 0.25787604 0.15031342 -0.08237626 -0.08588921 -0.021569533 0.009064867
-0.33028272 -0.5021578 -0.3557989 -0.40461853 -0.014606153 0.24683864 -0.24430998 -0.0013854944
-0.240913 -0.16290356 0.30027968 0.13399771 0.058508344 0.35640246 0.061319288 0.18193594
0.26680568 -0.2251753 0.03021088 0.06624615 0.10913941 0.110464424 -0.29075068 0.12415883
0.057464827 0.082021765 -0.06039098 -0.17557327 0.26696834 -0.2746935 -0.18667227 -0.29112253
0.14596836 -0.044397436 -0.0050739655 0.21395676 0.12636182 0.57292384 -0.087374926 -0.30104327
0.086298846 -0.34467834 0.20016028 -0.12168404 0.2548874 -0.20732665 -0.10275657 0.27913553
-0.7873908 -0.43072242 -0.10208846 -0.27250105 0.0016521172 -0.13136743 0.06285434 -0.22864382
0.3146545 0.5366166 -0.17552279 -0.0706288 -0.32394674 0.2869492 0.14472637 -0.12115083
1.2288976 0.941942 1.4581745 1.2365655 1.7997369 2.1274676 1.6075379 1.6254113
1.4594034 2.6674623 2.3672032 1.6273962 0.66491824 0.4716986 0.9468326 0.70084983
0.2121742 0.11358819 -0.092592515 0.26387915 -0.13766664 0.2172065 0.11537041 -0.25241366
-0.1607002 -0.3801526 -0.17179169 -0.3783258 0.19405624 0.084315866 -0.20040403 0.2196894
1.6064279 1.9274963 2.0640113 1.6968328 0.5948912 0.70499706 1.1334739 0.6892438
0.87277204 0.73102134 0.7809711 1.0039784 1.15736 1.6084033 1.5090474 1.2626132

conv2.bias f4 [64]
00000000: 9868 d0bc 4d73 da3c 3625 7eba ec03 11bc
00000010: 61f4 bcbb efd6 e8bc 5c10 77bc 65ba b03c
00000020: f364 373c c0b6 05bd 025c 49bc f9fc 113d
00000030: da5a db3c 5f12 28bd 8fe6 d13c 4915 da3c
00000040: df75 2dbc 85b4 153d bf5a 31bd a266 54bc
00000050: 0488 dabc 4169 0ebd 3588 10bd 1f2e 3c3a
00000060: 6e0a 83bc 5e93 1fbd 1ff1 043b cca6 023d
00000070: cebd f73c 53bc eb3b 6b06 ccbc 5ac3 1a3d
00000080: dc1b 763c 7860 10bd c4e9 55bc 8368 b7bc
00000090: 9b98 c43c c3b8 88bb 6a7a 83bc 4ee1 c63c
000000a0: 6838 cfbb d07c 1bbd 2c21 b93c a7ad 873c
000000b0: 28ef 0b3d 6a5d eabc 6410 10bd 22e7 de3b
000000c0: 6d27 833b c297 d9bc 8dc7 6739 a179 b03c
000000d0: ac9d 20bc 8416 84bc 33aa 97bc 3ab5 89bc
000000e0: 9859 f3bc 7a5a 73bc 5895 593c e18a 2b3d
000000f0: 06d2 00bc 550c 37ba d03e 07bc 8f50 173d
-0.0254405 0.026666308 -0.0009694876 -0.008851033 -0.005766437 -0.0284228 -0.015079584 0.021573255
0.011193502 -0.032644987 -0.012290003 0.035641644 0.02677672 -0.041033145 0.025622634 0.026621478
-0.010587185 0.03654911 -0.043299433 -0.012963923 -0.026676185 -0.034768347 -0.035286147 0.00071785034
-0.015996184 -0.0389589 0.002028532 0.03189735 0.030241873 0.007194081 -0.024905404 0.037783958
0.015021291 -0.03524825 -0.013056222 -0.022388702 0.02399855 -0.004172416 -0.016049583 0.024277356
-0.006323863 -0.037960827 0.022598825 0.016562296 0.034163624 -0.028608996 -0.03517188 0.0068024555
0.0040025027 -0.026561622 0.00022104215 0.021542372 -0.009803217 -0.016124018 -0.018513774 -0.016810048
-0.029705808 -0.014853114 0.013280235 0.041880492 -0.0078625735 -0.00069827336 -0.008254722 0.03694206

batchnorm2.weight f4 [64]
00000000: 7b1e a13f 82df e83e 92cf 8f3f 753a 653f
00000010: 3a52 883f 55bc 8f3f 72b7 6b3f c25c 033f
00000020: c3f5 983e 7a63 523f ad05 093f fd92 9a3f
00000030: 30dd 533f 77da 583f c973 513f f23d ad3f
00000040: 02c0 413f 55aa 1c3f 086d 6d3f 06d8 4f3f
00000050: ea31 7a3f 1339 403f c9b3 6c3f ecbf 583f
00000060: 263c 563f 8a87 923f 230e 733f bcf3 293f
00000070: 6959 853f dd2c 7b3f 2d1e f13e a634 863f
00000080: bc03 083f 07a3 293f 4e37 1b3f 0fe4 8f3f
00000090: 54d8 5d3f f142 8f3f f23b 763f 8f3f 413f
000000a0: a923 3d3f c961 8e3f b838 413f 2b25 3a3f
000000b0: e021 523f 578d 8a3f 6153 503f ebea 973f
000000c0: 9710 a13f d8f5 883e 1bdd 843f b152 ac3f
000000d0: d0f5 0d3f 9d73 763f c3f8 283f 6cc7 813f
000000e0: a3b3 343f 0d48 793f ee8e 643f 7e23 de3e
000000f0: bca2 3a3f 6079 2c3f 861a 5d3f 0c99 ce3e
1.2587427 0.45483023 1.123522 0.89542323 1.0650094 1.1229349 0.9207679 0.5131341
0.29875 0.8218304 0.53524286 1.2076107 0.8275938 0.8470835 0.818173 1.3534529
0.75683606 0.61197406 0.92744493 0.81189 0.9773241 0.7508709 0.9246183 0.8466785
0.8368553 1.1447613 0.94943446 0.66387534 1.0417911 0.9811533 0.47093335 1.0484817
0.531307 0.66264385 0.60631263 1.1241473 0.86658216 1.1192304 0.9618522 0.7548761
0.7388254 1.1123592 0.7547717 0.72712964 0.8208294 1.0824383 0.81377226 1.1868566
1.2583188 0.26750064 1.0379976 1.3462735 0.55453205 0.9627016 0.6600458 1.0138984
0.70586604 0.97375566 0.89280593 0.43386453 0.7290456 0.67372704 0.86368597 0.4035114

batchnorm2.bias f4 [64]
00000000: 56a3 343f 5cb7 b03f 08f8 093f 56e9 9840
00000010: 29f8 053d ed57 dbbf 4788 5840 613d 0b3f
00000020: da16 a4bd aa55 9640 c577 c33e bdc6 10bf
00000030: a8e9 a440 cef9 7840 dda8 6fbf 1597 15bf
00000040: ca65 a2be badc a7bf 22a7 d0bf c5b4 7940
00000050: 3440 b440 4140 a4be ed92 a5bf 247b 8940
00000060: 6579 4240 a828 bcbf dc7a 8cbf cdce 7340
00000070: b4a7 823e df65 cabd 5a61 00bf ee79 a63c
00000080: 5f1b 04bf 03e3 e83f 38e8 2d40 2f5d a93e
00000090: e8ba c93d 02d6 a9be 1cd9 bfbf 468b 9740
000000a0: 3452 6540 8ef1 06be 03af 4840 ab37 4640
000000b0: 61ff 6140 5618 8840 f36c 8740 1ed6 12c0
000000c0: 4856 483e 1018 a23e 6f13 a440 345f 04be
000000d0: 6685 0140 3fda ea3e e5d9 d5be 0d2a 8140
000000e0: dad7 6e3f 717a 9d40 4586 8e40 389b d33f
000000f0: 24f7 6d40 3278 1ebe a8ae 8740 fff6 04bf
0.7056173 1.3805957 0.5389409 4.7784834 0.032707367 -1.7136208 3.3833177 0.5439053
-0.08012171 4.697957 0.38177314 -0.5655325 5.1535225 3.8902469 -0.9361704 -0.5843366
-0.31718284 -1.3114235 -1.6301005 3.9016583 5.6328373 -0.32080272 -1.2935463 4.296282
3.0386593 -1.4699907 -1.0974994 3.809497 0.25518572 -0.098827116 -0.50148547 0.020321812
-0.51604265 1.8194278 2.7172985 0.33078906 0.09850103 -0.33171088 -1.4988132 4.735751
3.5831423 -0.13178083 3.1356819 3.0971477 3.531212 4.2529707 4.2320495 -2.2943187
0.19564164 0.31658983 5.1273723 -0.12926942 2.023767 0.45869634 -0.41767803 4.036383
0.93298113 4.9211965 4.4538903 1.6531744 3.7182093 -0.15475538 4.2400703 -0.51939386

batchnorm2.running_mean f4 [64]
00000000: 677a acbf 51f3 fac0 d047 1fc1 cad8 fa40
00000010: 901d 5640 ebcf 29c1 22f4 1a41 cf74 0dc1
00000020: 6868 8e40 8028 0f42 0425 4141 37c2 c140
00000030: 451b a6c1 35c1 1741 9e46 5241 7f1e 3541
00000040: ec4e 7bc1 6824 2e41 caa6 e840 b0f6 7341
00000050: 14fa 3841 b71d b0c0 9bef afc0 af79 1e40
00000060: 7d71 3441 a384 2940 4b97 53c0 e0f7 60c0
00000070: 62e0 eebf 293d 2ac0 5320 e140 6542 34c0
00000080: 4aa0 a240 bc85 0e40 3e26 a4c0 82d7 c9c0
00000090: b0df a140 d274 ec40 6e0b ae3f 7af9 1bc1
000000a0: 377d ba41 fbcf eb3f f879 40c0 5de4 fa40
000000b0: 2924 4241 fa82 3040 ca08 5f41 7c6d ac40
000000c0: 3c17 f0bf 4ac3 fbc0 76a8 5c41 41e5 e2bf
000000d0: bffc 3042 bdbe ec40 8e8e 0a41 f6b5 d2bf
000000e0: 494b aac0 a220 1d40 c8b8 a841 f6ff 50c1
000000f0: 8136 cb40 0b50 00c1 3617 4f42 74cf bcc0
-1.3474854 -7.8422017 -9.955032 7.8389635 3.3455544 -10.613261 9.684603 -8.841018
4.450245 35.78955 12.071537 6.054958 -20.763315 9.48467 13.142241 11.319945
-15.706768 10.883888 7.27036 15.247726 11.561054 -5.5036273 -5.4979987 2.476177
11.277707 2.6487205 -3.3061092 -3.515129 -1.8662226 -2.659983 7.035196 -2.8165524
5.0820665 2.2269125 -5.129668 -6.307557 5.0585556 7.3892603 1.3597238 -9.748407
23.31114 1.8422846 -3.0074444 7.8403764 12.133828 2.7579942 13.939646 5.388365
-1.875709 -7.867589 13.791128 -1.7726213 44.246822 7.3982835 8.659803 -1.646178
-5.32169 2.4551167 21.090225 -13.06249 6.3504033 -8.019542 51.772667 -5.900324

batchnorm2.running_var f4 [64]
00000000: 18bd c943 d64b 2242 58dd 1e43 54d9 5042
00000010: 8fb1 bb42 6ae5 5643 283b e942 776e 6842
00000020: e37d 8842 eb53 2442 17c8 ea42 40fd 9743
00000030: 5fde 1d42 618c 1b42 2983 0d43 354a 4243
00000040: bd9c 8643 c9ad 1c42 f50d 1642 ae54 1142
00000050: 750f 0c42 4c06 4043 e09c af42 1964 3042
00000060: 01f0 4242 8812 a443 46c4 7f43 697b 7842
00000070: 64bd 2743 d926 a043 2015 2642 45ab bc42
00000080: 218c 2e42 be82 3e42 ff82 0e42 875e 4d43
00000090: 68a9 9343 decf 3b43 5771 e541 4289 c941
000000a0: f4ba 2a42 d5d9 0743 f573 0842 abf9 3342
000000b0: 91a4 2942 3603 fb42 d988 dc41 ada0 0643
000000c0: bbff 5643 d958 2f42 5f05 8c42 7dba 3443
000000d0: e767 7242 f456 9f43 62b8 2743 1e58 ae42
000000e0: 8580 1243 3672 2142 edf3 1742 88b6 4142
000000f0: f73b 4c42 b565 8643 3794 7842 a183 1542
403.4773 40.57406 158.86462 52.212234 93.846794 214.89615 116.61554 58.107876
68.24587 41.08195 117.3908 303.97852 39.46716 38.88709 141.51234 194.28987
269.22452 39.169712 37.51363 36.332695 35.015095 192.0246 87.8064 44.09775
48.73438 328.14478 255.7667 62.120518 167.7398 320.3035 41.52063 94.33451
43.636845 47.627678 35.627926 205.36925 295.3235 187.81198 28.680342 25.19202
42.68257 135.8509 34.11324 44.993816 42.41071 125.50627 27.56682 134.62764
214.99895 43.836765 70.01049 180.72847 60.601467 318.67932 167.72025 87.172104
146.50203 40.361534 37.98821 48.428253 51.05856 268.7946 62.14474 37.378544

conv3.weight f4 [128, 64, 3, 3]
00000000: 3f5d 63bf 35d6 4d3d 1860 b7bd 19d7 59bf
00000010: fb66 283e 8d97 28be cd86 6a3d 533d 023f
00000020: 369a 40bd 8d4c f13e 21e9 cf3d 03fd 743f
00000030: 72e9 d13e b0f6 553e d2b0 8e3f f8e5 593f
00000040: 1cca 9f3e 9970 403f 085e 4c3f 1637 673f
00000050: 7e9d 8d3f 5a08 75bf e710 7ebf 93f8 97be
00000060: 88ca 91bd 9516 f8bd 82a1 d73e 17c5 123f
00000070: f41e 843b cae7 cf3f 6d5f 753e 0b85 2f3e
00000080: 59a0 a23f 5322 973d d373 23bf 8a8a 2fbf
00000090: d2a1 b13f 253d 85be 96cd 1e3e 6ae3 5cbe
000000a0: 81cd 8abf 808d 1f3e 2e7b 68bf cdad 62bf
000000b0: d47c b63f 93ab ad3e 9975 24bf bc32 50be
000000c0: 4b3e c1be 60c2 b6bf e646 16bf 71b5 f3bd
000000d0: 98d6 8dbf 19fb dfbe 8590 6b3f 5494 e13e
000000e0: f43c 013e eb92 4e3f f6f1 633e eff0 adbc
000000f0: 7d50 223d 9651 bbbc 5f9d 9ebb 1df6 163f
00000100: 30e8 f23e d9f4 35bd 587b a03d 9713 50bf
00000110: 6537 4abf 067e f83d ad48 42bf 6660 9bbe
00000120: 44d1 753e 84a8 bebe 2952 44bc 6b26 29be
00000130: ab40 11bf b131 8cbe 6ec0 88be cd38 f3be
00000140: 2ecb 283d 76a2 03be 57fb 0cbf 4eb8 963e
00000150: b72f 8bbf c373 29bf 03ae 133f 0bb9 d4be
00000160: dcac 6fbd d44d 1a3f 2208 b73e 7b5d 7b3d
00000170: 0201 a03f aa21 eebd b6ce 03bf fe2b 333f
00000180: 0575 e23e 74cd b2be 03db 1a3f 2869 553f
00000190: e26a e13d 4cf2 0cbe f078 503f e216 9e3c
000001a0: 78b8 15be 7dd7 b53d ba08 f0be 0927 c83d
000001b0: 5a14 ee3d 444c d0be 07a5 e73d e7a4 8ebf
000001c0: da42 1abf 3eae 353f 9288 c4be 2b64 b6bd
000001d0: 1205 e93f 6f39 febe 09fd b8be a3f2 7a3f
000001e0: c307 7bbd 1e3f fb3c 4df2 c03e d6fc 72bd
000001f0: c66f 25be 14b2 5bbf f1c8 023f f35a 8abe
00000200: ac03 9b3d c36e 053e 5ace 30bf 8783 923e
00000210: 196b 47be 79df 00bf 1874 c43f 52ff 3abf
00000220: c4b4 7abf b5f5 80bf 4783 703f 937c 4b3f
00000230: 6d2d e63e 5802 a0bd 1b0b e63d 146c cabe
00000240: 5e7d 083f 2d47 85bd 0805 43bf 2b27 1e3f
00000250: e843 8c3d 54a0 a6be b295 1dbd 115b 03be
00000260: 7f09 b2bd 2d4c a4bf 1f11 bebe c23f a6bd
00000270: a337 48bf c164 9d3e a718 49be c15a 0cbe
00000280: 51ce 233f 4654 7fbe 0ff0 573e 6a1a 9b3a
00000290: eddd d53d a5c7 d63e b297 a5ba 9d25 423e
000002a0: 4727 c0bd d0af 8dbe d471 383e be9e 2a3f
000002b0: 7f7e 4c3e 5a63 a23d eb27 de3e c8e7 41be
000002c0: 5dca 44bf 59eb cd3e 6c70 fe3d 090d 2fbe
000002d0: 501d 863d 0ae6 743f 2334 ba3d bc63 04be
000002e0: 7249 773e 87f0 8bbf 2c0b 91be 1187 453e
000002f0: 8515 69bf 68b4 09bf 7da5 6ebe bb2e 9cbf
00000300: 5cbb 583e 3907 be3e 313f 4cbf 4495 cabe
00000310: 63dc 3f3e 0e46 57bf 58be 6e3f c445 a53e
00000320: 1a2d fd3e 55b1 37bf a295 47bf 9b25 81be
00000330: 90e7 67bf 678c 13be 370f 8d3f c90a fabc
00000340: 9cbe 44bf b5fa b1be 5c8e 69bf 6dec 25bf
00000350: a50c 813e 92a8 4abe d2ab 783e 5950 c53f
00000360: ce5a 223e ad6a 593f 04d1 ad3e 8135 08be
00000370: b457 583f 1a91 303d a028 89be cc43 cabe
00000380: c86e 88bf c2e4 65bf 600b 88be bde8 97be
00000390: 00c8 1abf 7514 853e 86b9 64be 81b0 6abf
000003a0: a535 803e 2837 efbe cff9 bdbc d7da 60bf
000003b0: 572f 9dbf 8d12 87bd f9c7 c2be ed81 49bf
000003c0: c7d0 7f3e 50c5 86bd 0af3 e5be f214 9a3e
000003d0: 9e43 70bf b42d 2abf c69d 343f 872f 62bf
000003e0: b379 c3be 2d45 4c3f a715 ccbe 4485 da3e
000003f0: 7c88 7e3f 7439 24bf e172 32bf d5fd 133f
-0.8881416 0.050253112 -0.08953875 -0.8509384 0.16445534 -0.16464062 0.057257462 0.50874823
-0.047022067 0.47128716 0.10151888 0.95698565 0.40998417 0.20894885 1.1147711 0.8511653
0.31208885 0.7517181 0.7983098 0.9031843 1.1063688 -0.9571587 -0.9924454 -0.29681835
-0.07118708 -0.12113682 0.42115408 0.57331985 0.00403201 1.6242611 0.23962183 0.17140596
1.2705184 0.07379594 -0.6384861 -0.6857077 1.3877509 -0.26023212 0.15508112 -0.21571127
-1.0843965 0.15581322 -0.9081296 -0.8854645 1.4256845 0.33919963 -0.6424194 -0.20331854
-0.37742838 -1.4278069 -0.5870193 -0.118998416 -1.1081114 -0.4374626 0.92017394 0.44058478
0.12620908 0.8069293 0.2226027 -0.02123305 0.03962754 -0.022866052 -0.0048405374 0.5896929
0.4744277 -0.044422958 0.07836026 -0.8127989 -0.78990775 0.12133412 -0.75892144 -0.30346984
0.2400561 -0.37237942 -0.011982479 -0.16518562 -0.567393 -0.27381662 -0.26709312 -0.47504273
0.041209392 -0.12854943 -0.55071014 0.29437488 -1.0873936 -0.66192263 0.57687396 -0.41547427
-0.05851446 0.60275006 0.35748392 0.061368447 1.2500308 -0.11627515 -0.5148729 0.69989
0.44229904 -0.34922373 0.60490435 0.8336358 0.110067144 -0.13764304 0.81434536 0.01929802
-0.1462115 0.08878992 -0.46881658 0.0977307 0.116249755 -0.40683186 0.11310773 -1.1144074
-0.6025826 0.70969 -0.38385445 -0.08905824 1.8204672 -0.49653193 -0.3613055 0.98026484
-0.0612867 0.030669745 0.3768486 -0.059323154 -0.1615592 -0.858186 0.5108786 -0.27022514
0.0756906 0.13030533 -0.6906487 0.28615972 -0.19474448 -0.5034099 1.5347929 -0.7304584
-0.97932076 -1.0074984 0.93950313 0.7948696 0.44956532 -0.07812947 0.11232587 -0.39535582
0.53316295 -0.06507716 -0.7617955 0.61778516 0.068488896 -0.32544196 -0.03847284 -0.12827708
-0.086932175 -1.2835747 -0.37122437 -0.081176296 -0.78209895 0.30740932 -0.1963831 -0.13706495
0.6398669 -0.24934492 0.21087669 0.0011833434 0.104427196 0.41949192 -0.001263371 0.18959661
-0.093824916 -0.27673197 0.18012172 0.6664847 0.1997013 0.07929106 0.4338983 -0.18936074
-0.7687128 0.4021862 0.124237865 -0.17094816 0.0654856 0.9566351 0.090919755 -0.1292867
0.24149111 -1.0932778 -0.28328836 0.19289805 -0.9104846 -0.53790903 -0.23305316 -1.2201761
0.21165222 0.37114885 -0.7978392 -0.39567006 0.18736415 -0.8409127 0.9325919 0.3227979
0.49448472 -0.7175496 -0.77962697 -0.25224003 -0.9058771 -0.14409028 1.1020268 -0.03052272
-0.76853347 -0.34761587 -0.9123285 -0.6481388 0.2520496 -0.19790867 0.24284294 1.5415145
0.15854952 0.849284 0.3394853 -0.1330166 0.84508824 0.04310713 -0.26788807 -0.3950485
-1.0658808 -0.8980218 -0.26571178 -0.29669753 -0.60461426 0.2599217 -0.22336397 -0.91675574
0.25040928 -0.46721768 -0.023190407 -0.87833923 -1.2280072 -0.06595335 -0.38043192 -0.78713876
0.24981986 -0.06580603 -0.44911987 0.30094105 -0.93853176 -0.6647599 0.70553243 -0.8835377
-0.38178787 0.79793054 -0.3986027 0.426798 0.9942701 -0.64150167 -0.6970654 0.5780919

conv3.bias f4 [128]
00000000: e19d aa3c 081c 5c3c 907c bcbc 6709 273c
00000010: 4059 cdba 3cd6 723a 124e 5dbc 3ea9 663c
00000020: c5a9 d639 9876 b13b de16 f3bc 6e1b de3c
00000030: d3ab 7fbc 03cb 263d 7ac7 76bc 9bf2 5c3c
00000040: b4ab 9c3c 589c 18bd ff05 e4bc bbe0 adbc
00000050: 3552 493b 2616 6f3c 3857 563c 2cf9 d23c
00000060: 74aa 26bd 9d4b babb 3133 68bb 1811 893c
00000070: ec3a 393c 2631 aabc a35d ad3c d42f 05bc
00000080: 5361 1e3d 7fd1 163d 04de c63a 9456 933c
00000090: 409e b0bb 5ee4 283d f71d ce3c e08f 1c3d
000000a0: d4c7 003d 02ae a33c 3ea5 bf3c 1ff1 2b3c
000000b0: e019 ea3c b309 b2ba f8e6 0a3d 1e8e 0fbd
000000c0: 09e5 e23c d9a7 7cbc d27e bb3c c7d4 063d
000000d0: 89a2 933c 476e 9abc 913a 24bd 78d0 8b3c
000000e0: 33fe 19bd e38e 273c bbf7 23bb e39b cebc
000000f0: 4af6 fbbb 656e 773c 184c 3cbc 9b1c 063d
00000100: 0723 e33c cae9 1bbd 7c06 023c c0af 1d3d
00000110: 4b63 04bc 4bd7 113d a99a 80bc b457 aabc
00000120: bee8 073c e1ed 493c 6eed debc f4ad 933c
00000130: 1e3b 56bc 7ee7 243c 1576 6e3c 641c d9bc
00000140: f6b2 f63c 52b1 c93c 19a0 0f3c ef2e 0bbc
00000150: 2c2f 093c 6ec3 ce3c 38d6 d3bc 161c 403c
00000160: 7950 8bb9 302c 9ebc 3a02 81bc 3677 233d
00000170: 59f6 853c cc45 08bc f51a d73b 64d6 1c3d
00000180: 4ca1 b33c e3c5 8b3c cb29 093c 8b7c e83b
00000190: fa42 e3bc 6539 65bb 9ab1 06bd 4786 33bc
000001a0: ca12 48bc 6f14 1d3d d28a 4d3a 14f0 c3bc
000001b0: 6cef aebc 095e bc3c 5179 01bd ef77 afbc
000001c0: cac1 f73c 290a 9ebc ca58 b33c a624 083d
000001d0: 92e9 cbbc fc46 1fbd 7c90 033d 4f1f f23b
000001e0: 732d b4bb b51a a3bc 12da 10bd 5167 c33b
000001f0: decf 923c bd03 d93b 00aa e83c 013f 0cbd
0.020827236 0.013434418 -0.023008615 0.010195113 -0.0015666857 0.0009263491 -0.013507383 0.014078436
0.0004094375 0.005415749 -0.02967399 0.027112689 -0.015604931 0.04072095 -0.015062207 0.013485576
0.019124843 -0.037258476 -0.02783489 -0.021225324 0.0030719165 0.014592683 0.013082318 0.02575358
-0.0406899 -0.0056852833 -0.0035430903 0.016731784 0.011305552 -0.020775389 0.021162814 -0.008129079
0.038667034 0.036820885 0.0015172367 0.01798562 -0.0053899586 0.041233413 0.025160773 0.038223147
0.03144057 0.019980434 0.023394223 0.0104944995 0.028576791 -0.0013583213 0.033911675 -0.035047643
0.027697103 -0.015420877 0.022887621 0.032917764 0.018021839 -0.018851412 -0.040094916 0.01706718
-0.03759594 0.010226938 -0.0025019485 -0.025220817 -0.007689272 0.015102004 -0.011492752 0.032742124
0.027726663 -0.038064755 0.007936116 0.038497686 -0.008080314 0.03560571 -0.015698748 -0.020793773
0.008295236 0.012324781 -0.027212825 0.018027283 -0.013075618 0.010064958 0.01455452 -0.026502796
0.030114632 0.024620686 0.008766198 -0.008495077 0.008373063 0.025239673 -0.025858983 0.011725446
-0.00026572103 -0.01930818 -0.015748132 0.03990861 0.01635282 -0.008317422 0.006564493 0.038290396
0.021927498 0.017062133 0.008371781 0.007094925 -0.027741898 -0.0034976837 -0.032884218 -0.010957307
-0.012211511 0.038349565 0.0007840815 -0.02391819 -0.0213544 0.022994058 -0.031609837 -0.021419493
0.030243773 -0.019291954 0.021892924 0.033238076 -0.024891648 -0.038886055 0.032120213 0.007388986
-0.005498582 -0.019910196 -0.035364218 0.005963244 0.017921384 0.00662276 0.028401375 -0.034239773

batchnorm3.weight f4 [128]
00000000: a03c 043f f597 933f 4417 dc3e 96b8 913f
00000010: 83b6 8c3f 06b8 043f f8f4 593f 3fe4 813f
00000020: 3dd6 d43e 8ab1 b43e 73de eb3e d649 c43e
00000030: 59bb f03e 4b7c f23e 3d1c 733f 43d6 e33e
00000040: de08 fd3e e614 f43e 25ea fe3e 23a4 d23f
00000050: 2cf1 b63f 3f23 853f ba64 863f cabb f53e
00000060: bd0b 003f b2d3 cf3e 4dc3 063f db3e ea3e
00000070: 54b5 873f dfea 4e3f b88a 053f 4e8d e43e
00000080: e8c3 db3e 7438 d83e e7a5 033f 1a13 793f
00000090: 7ea2 953f 1467 e93e 29a8 233f b5a0 983f
000000a0: f5de 1a3f 360c 6c3f e7f5 773f 2db2 f63e
000000b0: 46cc e43e 61b3 e73e 604a ab3f 1079 ec3e
000000c0: 4bca 043f 1275 eb3e 6c69 153f c97b fe3e
000000d0: 5497 db3e d055 913f 5537 a43f ccd3 ff3e
000000e0: 6587 033f 5026 ae3f db44 ca3e 7366 083f
000000f0: fcbb ab3f c236 ef3e 3f70 b53f efac d13e
00000100: 4b14 993f 1553 663f 34c6 d33e e15f e63e
00000110: 483a dc3e 4ff3 043f c422 f33e 7e18 d43e
00000120: ab00 fe3e 47ce 633f 40de d23e ed2c d93e
00000130: d9f2 673f d0cb b43f f34c e73e e006 003f
00000140: 0c43 e83e ff90 db3e c68c da3e 9aad 033f
00000150: a214 e03e 27e4 f93e f040 d53e 4233 b93f
00000160: 0b4d cd3e 5b3c ec3e 216d d03e 4e30 c63f
00000170: c1ab a73f 7e86 a43f adc2 333f 63e8 d63e
00000180: 5472 8b3f c430 9a3f aaba 4c3f 104c f83e
00000190: 43e6 0d3f 10e9 9a3f 1eec 163f ca4c f93e
000001a0: fd76 073f 2163 823f 9876 a23f 404c 923f
000001b0: 1478 aa3f 77b5 993f 07e4 fe3e dfc0 f23e
000001c0: 93e1 e63e 77a0 753f 69fa 973f afd6 a93f
000001d0: 04c4 c93e bb4d b23f 8571 af3f 7c7e b33f
000001e0: 9336 c33e 98c8 013f 5e42 e83e 32e7 a83f
000001f0: 52d9 e93e 5710 013f 08b6 f23e b9a5 ee3e
0.51655006 1.1530749 0.429865 1.1384456 1.0993198 0.518433 0.8513942 1.014778
0.415697 0.35291702 0.46068153 0.38337582 0.47017935 0.47360453 0.94964963 0.44499406
0.49420828 0.47672194 0.49788013 1.645634 1.429235 1.0401381 1.0499489 0.47994834
0.5001791 0.40591198 0.52641755 0.4575108 1.0602212 0.80827135 0.52164793 0.44639057
0.42922902 0.4223057 0.5142502 0.9729477 1.1690214 0.45586455 0.6392847 1.1924044
0.60496455 0.9220613 0.9685959 0.48182812 0.44687098 0.45254043 1.3382072 0.46186113
0.51871175 0.45987755 0.58363986 0.49703816 0.42888892 1.1354313 1.2829386 0.49966276
0.5137847 1.3605442 0.39505658 0.53281325 1.3416743 0.46721464 1.417488 0.4095225
1.1959318 0.89970523 0.41362154 0.44995025 0.43013215 0.5193376 0.47487462 0.41424936
0.49609885 0.8898663 0.41185188 0.42417088 0.9060493 1.4124699 0.45175895 0.5001049
0.45363653 0.4288406 0.42685527 0.5143677 0.43765742 0.4880688 0.41651106 1.4468768
0.40097842 0.46139798 0.4070826 1.5483491 1.309929 1.2853544 0.70218927 0.41974172
1.0894265 1.2046132 0.79972327 0.4849553 0.55429476 1.2102375 0.58954036 0.48691398
0.52915937 1.0186502 1.2692442 1.142952 1.3317895 1.2008504 0.49783346 0.47412774
0.45093974 0.95947975 1.1873294 1.3268641 0.3940736 1.3929971 1.3706518 1.4022975
0.38127574 0.50696707 0.45363134 1.3195555 0.45673615 0.5041556 0.47404504 0.4661081

batchnorm3.bias f4 [128]
00000000: 22f9 a63f 6954 623e 106f 8d3f f053 db3d
00000010: 2bcc 3b3d 2690 c53f 7e92 e23f a41c ddbf
00000020: d2cd 773f c56b 673f 1ceb 9a3f f215 8a3f
00000030: 5dbc 953f f188 993f 7536 55bf e78e 973f
00000040: 51ef 8c3f 4da2 913f e962 993f 271f 843e
00000050: fc9c 4bbd 0ed4 bf3e fa4f 5abd cb5f a03f
00000060: 94a2 b13f 66c2 893f a0a8 9f3f 1a34 923f
00000070: 3fdd 5f3d ee65 993d 2d03 a33f 5af5 843f
00000080: 53f6 833f 4c2d 8f3f f0a2 b93f 4ea4 ed3d
00000090: 4c1f f73e 8e6d 903f fe21 d33f f875 9c3d
000000a0: b75f 433e e5c7 2abd 0a0d ee3d a609 b23f
000000b0: 1a26 8b3f 845e 803f dd04 713e 505c a43f
000000c0: 416f b63f 961a 9b3f 6eae 9c3f befc a23f
000000d0: 7b1a 7f3f cbbd c2bd 5e0b 7dbf b95a 8e3f
000000e0: 949e 953f 3e69 32bf 6e3f 703f 11ee 863f
000000f0: 727e e6be 4acd 7b3f a1aa 683a 4492 953f
00000100: d7a6 a5be 6905 703d d778 8a3f 272b 963f
00000110: 56a1 853f 3c86 953f ba34 ad3f 69b7 8e3f
00000120: 1b5d 9d3f baef 6fbd ba1e 973f 8151 8d3f
00000130: d510 3bbc fdb6 84be bc72 aa3f 8fd5 ab3f
00000140: 8b35 873f 210d a13f a213 a13f f113 bd3f
00000150: 5d59 8a3f 3b8c ab3f 6e16 943f 6fde f7bf
00000160: 8031 823f 07a6 8d3f d021 7a3f 816a bdbd
00000170: 0eab d8bf 5462 78bc f7bb 683f 3101 923f
00000180: ebe9 2bbe 72b8 c4bf cb07 adbc b090 9d3f
00000190: 712d b33f fac5 d5bf a0c2 c13f d350 933f
000001a0: 6ab1 af3f b9b2 09bf b110 c43c c306 40bd
000001b0: 612d dcbe 8a16 17be 33c7 9e3f 679e ab3f
000001c0: a5f4 913f c204 8a3e b8fb 33bc 1703 1ebd
000001d0: a314 7d3f 85bf 4f3e b774 563d 79f8 3cbe
000001e0: 75e3 883f 3d2c bb3f 4cf3 993f 7822 1d3d
000001f0: 1666 973f 7c5b 943f 423c 8d3f c5cc 9a3f
1.3044779 0.22102512 1.1049519 0.10709369 0.045849007 1.5434616 1.7700956 -1.7274365
0.9679843 0.9039882 1.2103 1.0787947 1.1698109 1.1994916 -0.8328622 1.1840485
1.1010534 1.1377655 1.198331 0.25805017 -0.04971026 0.37466472 -0.053298928 1.2529234
1.387774 1.0762451 1.2473335 1.142215 0.054654356 0.07490145 1.2735344 1.0387375
1.0309547 1.1185699 1.450285 0.11603604 0.48266065 1.1283433 1.6494749 0.07639688
0.19079481 -0.04169454 0.11623581 1.3909194 1.0871003 1.0028844 0.23537011 1.2840672
1.4252702 1.2117488 1.2240732 1.2733381 0.9964978 -0.095088564 -0.9884547 1.1121436
1.1689019 -0.69691837 0.93846786 1.0541402 -0.45018345 0.9836012 0.00088755233 1.1685262
-0.3235385 0.05859891 1.0818127 1.1731919 1.0439861 1.168159 1.3531716 1.1149722
1.2294039 -0.05857823 1.1806252 1.1040498 -0.011417587 -0.2592086 1.3316264 1.3424548
1.0563215 1.2582132 1.2584116 1.4771711 1.0808522 1.340217 1.1569345 -1.9364756
1.0171356 1.1066293 0.97707844 -0.0924883 -1.6927202 -0.015160162 0.9091181 1.1406614
-0.16788451 -1.5368788 -0.02112188 1.230978 1.3998243 -1.6701043 1.513752 1.150904
1.3726017 -0.53788334 0.02393374 -0.04688145 -0.4300337 -0.14754692 1.2404541 1.3407716
1.1402785 0.26956755 -0.010985307 -0.038577165 0.98859614 0.20287903 0.0523574 -0.1845416
1.0694414 1.4622875 1.2027373 0.03836295 1.1828029 1.1590419 1.1034014 1.2093741

batchnorm3.running_mean f4 [128]
00000000: 9986 7042 77e1 5641 e7b1 a442 752f 9141
00000010: 44c7 e4c2 0a24 9242 d1a5 c0c1 ce61 9142
00000020: cfe9 2b42 85d5 d041 cefa 7042 2189 5242
00000030: 4e21 8a42 f1e2 a542 847e 0b43 81d6 6140
00000040: d725 3141 4f4c a341 a031 1942 a088 69c2
00000050: fc23 41c1 4a43 ee41 be4d 7040 ee54 b842
00000060: 8be9 a042 266a 5242 d3b3 a9c1 c4c8 8b42
00000070: 401d 88c0 9b87 55c1 ba10 d842 62e4 4e42
00000080: 2eca 5b42 fea7 3240 6e09 fe42 49ed 93c2
00000090: 3c9c 4a41 82c1 4e42 ba24 f842 7794 8b41
000000a0: 97d4 82c2 b29c 9c42 7aee aac2 eeb3 cd42
000000b0: b8d5 2342 1f51 1e42 553a 8c42 99b3 1542
000000c0: 7752 6642 b495 8842 eaeb b742 5c04 c542
000000d0: abaf 4a41 227d fd41 dc70 1442 2e52 8740
000000e0: ae51 8242 2738 2943 e505 8d41 8503 9c42
000000f0: fb2a f840 0d39 7d41 af23 a8c1 6dcd 3742
00000100: 11c5 05c2 2020 ee42 33f2 d841 bafd b242
00000110: 2e13 9b42 c829 9542 f3de 5142 2d27 d941
00000120: 078d 4c42 c51c e6c2 5b12 7141 a695 3942
00000130: ec85 0042 2f73 a2c2 2776 3b42 f698 b842
00000140: 32ab 7742 4935 8c42 0fc9 9740 0b9c cc41
00000150: 4239 2842 5c52 9142 b05d 1542 dd05 2c43
00000160: 0180 4142 ce74 6842 3a15 bc41 cd42 89c2
00000170: 8748 7542 003f 3d43 da71 72c1 06d5 3542
00000180: 9484 d0c1 baf7 4cc2 d7bf d640 d90a 9f42
00000190: 9d6d 5442 476b a3c2 6ce2 8342 6cce e042
000001a0: 870a 3c40 eb83 c241 64d8 40c3 6f83 db42
000001b0: 1c14 4d43 bff3 37c2 4991 c642 0e7b 1b42
000001c0: e779 3142 2991 e942 d263 7542 244a 9e42
000001d0: b8c5 bb41 57a8 5dc1 e339 a4c2 20c6 5b42
000001e0: e135 4542 7a12 4f42 f8af a941 f689 8742
000001f0: 0742 ac42 2b9b 9042 9828 b742 bbb9 3142
60.131443 13.430045 82.347466 18.148172 -114.38919 73.07039 -24.080965 72.691025
42.97833 26.104258 60.244926 52.633915 69.06505 82.943245 139.4942 3.5287173
11.071738 20.41226 38.298462 -58.383423 -12.071285 29.782856 3.754745 92.16588
80.45614 52.60366 -21.212805 69.89212 -4.2535706 -13.345607 108.03267 51.72303
54.94744 2.7915034 127.01842 -73.96345 12.663143 51.688972 124.07173 17.447493
-65.415215 78.306046 -85.465775 102.851425 40.95871 39.57922 70.11393 37.42539
57.580532 68.29239 91.96077 98.508514 12.667888 31.6861 37.110214 4.2287817
65.15953 169.21935 17.627878 78.006874 7.7552466 15.826428 -21.017424 45.95061
-33.442448 119.062744 27.118261 89.49556 77.53746 74.581604 52.467724 27.144129
51.137722 -115.05619 15.066981 46.39614 32.130783 -81.22497 46.865383 92.29875
61.917183 70.10407 4.7432933 25.576193 42.055916 72.66086 37.34149 172.0229
48.375004 58.114067 23.510365 -68.63047 61.320827 189.2461 -15.152796 45.45803
-26.064735 -51.24192 6.710918 79.52119 53.107044 -81.709526 65.94223 112.40317
2.9381425 24.314413 -192.84528 109.75671 205.07855 -45.988033 99.28376 38.87017
44.369045 116.783516 61.34748 79.144806 23.471542 -13.853599 -82.11306 54.94348
49.302616 51.768044 21.210922 67.769455 86.12896 72.30306 91.579285 44.431377

batchnorm3.running_var f4 [128]
00000000: 41af 8c42 202c 4c43 0361 3642 cab3 1f44
00000010: 2ca5 1144 91ab 1143 b6bf ce43 01ff d143
00000020: eaaa 3542 8865 de41 97c9 4a42 5960 2942
00000030: d614 4542 8746 8842 3f7b 1144 3d13 3942
00000040: 3d7f 5b42 673a 8842 c0d5 a242 a00e 0a44
00000050: 1585 3b44 2de7 c743 9588 d543 02bd 9b42
00000060: bd4b bb42 3d3f 1b42 3330 f742 640e 7842
00000070: 5e56 d343 5b50 bb43 61ba 9042 6eb6 6142
00000080: d1ed 3542 357e 4f42 805f 3043 bb72 a443
00000090: 65f7 8644 c13b 0542 36a9 be43 c594 3b44
000000a0: b0c1 1444 a5ac 1a43 b05e 1c43 48a0 c742
000000b0: cf3d ba41 3457 6742 6e43 be44 da61 c342
000000c0: 644a de42 7083 8542 bbb3 8a42 872f 9542
000000d0: bb35 fd41 41fd 7044 b48f 5744 58ec 6542
000000e0: b575 3342 52f6 3044 8c7b 0542 ab05 4642
000000f0: 29c9 6344 8579 1e42 67a3 a444 4b3d 3e42
00000100: 1499 ec43 7f3c b243 c1df 1842 f8f3 a442
00000110: 4798 3c42 3e42 a242 12ab 9242 3e5c 0a42
00000120: 7b1f 8142 c1b4 b243 872b a042 f028 1c42
00000130: cc71 7944 e5df d544 07e1 7f42 91b3 d142
00000140: 619b 0d42 dd85 9742 a0c7 7e42 1f85 0d43
00000150: 39f1 8342 dc67 be42 c9d5 f641 f599 9b43
00000160: 2a40 5e42 1519 ad42 b2a0 0c42 0a99 6044
00000170: 4b77 ff43 0778 9244 d457 6442 1dc3 2142
00000180: ce7e 5d43 8666 5e43 5b26 7244 cb2e 9342
00000190: 65ef ad42 0580 4c43 0d99 3543 f888 6342
000001a0: db1e dd42 3e02 d843 3561 9044 7095 0f44
000001b0: 05b0 8943 d71f 2344 4294 9b42 40d0 a042
000001c0: 4d75 7b42 942f 6642 5da4 b543 4d94 4a44
000001d0: 9225 4f42 da21 6444 c825 4d44 c513 f143
000001e0: b03e 1842 5f2f f942 094e 5f42 d408 6244
000001f0: cc2f 5b42 1047 3242 c7a5 5442 1278 7342
70.34229 204.17236 45.594738 638.8092 582.5808 145.67018 413.49774 419.99222
45.41691 27.799576 50.696865 42.34409 49.270348 68.13775 581.9257 46.268787
54.874256 68.11407 81.41748 552.2285 750.0794 399.80606 427.06705 77.869156
93.64793 38.811756 123.59414 62.014053 422.67474 374.62778 72.36402 56.428154
45.482243 51.87325 176.37305 328.89633 1079.7311 33.308353 381.32196 750.3245
595.02637 154.6744 156.36987 99.81305 23.28018 57.83516 1522.1072 97.69112
111.145294 66.756714 69.351036 74.59283 31.651236 963.9571 862.24536 57.480804
44.86495 707.84875 33.37065 49.505535 911.1431 39.61867 1317.1063 47.559856
473.19592 356.47263 38.21851 82.4765 47.14871 81.12938 73.33412 34.59008
64.561485 357.41214 80.085014 39.039978 997.7781 1710.9967 63.969753 104.850716
35.401737 75.76145 63.694946 141.52 65.97114 95.20285 30.854387 311.2028
55.56266 86.54899 35.15693 898.39124 510.93198 1171.7509 57.08577 40.44054
221.49533 222.40048 968.5993 73.59139 86.96757 204.50008 181.59785 56.88376
110.560265 432.01752 1155.0377 574.33496 275.37515 652.4975 77.789566 80.40674
62.86455 57.546463 363.2841 810.3172 51.78669 912.52893 820.59033 482.15445
38.06122 124.59252 55.826206 904.13794 54.796677 44.569397 53.161892 60.867256
